Model/cnn_final.pth (torch, 284077 bytes, 5 tensors)

fc1.weight f4 [128, 483]
0.050736263 0.076790154 0.05066696 0.015315032 0.018145239 0.05304344 0.025588734 0.025242152
0.045344345 -0.031899635 -0.000599229 -0.0121075725 0.015552539 0.043858174 -0.006096838 0.0016520073
0.050147574 0.020221451 -0.016257308 0.0414383 -0.015494505 -0.008227941 0.0015221016 -0.045544453
-0.009410913 -0.03579795 -0.06792806 -0.03785815 -0.024839798 -0.03386529 -0.04838117 -0.0007399416
0.041074447 0.023609666 0.0043342737 -0.07905738 -0.053021222 0.032045573 -0.05969991 -0.040094193
0.0151570495 -0.041819084 0.010553955 0.006462438 0.04798218 0.061247498 -0.055161353 -0.0029105933
-0.04793801 0.03197907 -0.04850294 -0.04088917 0.01623595 0.02452046 0.009572932 -0.016124096
0.012903556 0.045639407 -0.032901544 0.054238435 -0.057761215 0.026472708 -0.07606324 -0.017630385
0.009327841 0.022470191 0.029222893 -0.068574905 -0.042764474 -0.02199267 0.015370282 0.006550985
0.037613485 0.032381568 0.027640525 0.0381298 0.043672334 0.022634944 -0.07277178 0.025210539
0.020216478 0.017586527 -0.007166679 0.022557218 -0.025000101 -0.03139803 -0.0033514383 0.009710568
0.032649126 -0.0003637865 0.03396326 -2.5936446e-05 -0.012036374 0.018182304 -0.033170454 -0.023143329
-0.012746296 0.024644034 -0.04370039 -0.06748305 -0.030796742 0.05282849 -0.015856026 -0.040076833
-0.05468748 -0.021965807 -0.03434661 0.014803619 -0.053911638 -0.010959251 -0.025047062 -0.043920334
0.023256408 -0.01155797 -0.010258561 -0.029447237 0.0008734194 -0.043179464 0.04097393 0.014927001
-0.01675816 0.045095187 0.030190106 0.030730002 -0.04999702 0.019875132 -0.03727474 0.016800823
0.03548775 0.021501634 0.010597357 0.021624837 0.044655066 -0.046585105 0.037545893 0.0013512309
0.060963094 0.0066573364 -0.03334369 0.06190724 -0.0055487673 -0.024865206 -0.02283511 -0.05577463
0.045422204 -0.005304691 -0.01471324 -0.0009946267 -0.041371346 -0.032176767 -0.039200988 -0.013101694
0.02710271 0.044768106 0.0061043515 0.031230494 0.000120112876 0.013644023 0.01958543 -0.048481252
0.008058412 0.040857006 -0.06478048 -0.036274843 -0.042327818 -0.073983 -0.018347692 0.021971576
-0.019300668 -0.05295501 0.012742564 -0.022978205 -0.0018274377 -0.01552309 0.0117507465 0.0059475256
0.014213775 -0.019793423 0.024738505 0.057063498 -0.020345604 0.052061643 0.02352758 -0.007333851
0.05702085 0.03977557 0.016102262 0.018597877 0.041729406 0.008431411 0.031354852 0.00965347
0.021960042 0.032174677 -0.041575573 -0.024070326 -0.060431037 -0.03014885 -0.05588342 -0.048101258
0.023089705 0.00812222 -0.047659803 -0.00844826 0.052697908 -0.013018857 -0.014531278 0.017560054
0.0023797536 -0.017228493 0.05899979 -0.015627632 -0.0008877802 -0.06590411 0.0146889305 -0.047935326
-0.035651375 -0.012828372 -0.0258984 -0.011190647 0.010931257 0.008634209 -0.004843692 0.018141823
0.05993231 0.0043213107 -0.07086695 0.013999415 -0.02098396 0.057265997 0.030684792 0.005856664
-0.08788844 -0.009004307 0.022940286 0.018279882 -0.02627931 0.033203047 -0.0048750006 -0.0016844895
0.014330467 -0.0009201491 0.003508742 -0.0072340923 0.039857548 0.0038436288 -0.001712337 -0.042270433
0.032403905 0.040439866 0.0047452874 -0.004040499 0.034249946 0.036515243 -0.036175206 -0.062432915
00000000: d4d0 4f3d 2844 9d3d 2988 4f3d e6eb 7a3c
00000010: 53a5 943c 1444 593d 779f d13c a1c8 ce3c
00000020: feba 393d 31a9 02bd 9415 1dba d75e 46bc
00000030: 14d0 7e3c a1a4 333d fcc7 c7bb 2b88 d83a
00000040: 8b67 4d3d 75a7 a53c 0c2e 85bc 35bb 293d
00000050: aadc 7dbc 7cce 06bc 4181 c73a d28c 3abd
00000060: 3b30 1abc dfa0 12bd de1d 8bbd 2611 1bbd
00000070: d57c cbbc 55b6 0abd 552b 46bd a4f8 41ba
00000080: ae3d 283d 0f69 c13c 8606 8e3b d6e8 a1bd
00000090: c82c 59bd 3842 033d e587 74bd cf39 24bd
000000a0: 4655 783c 7d4a 2bbd 7fea 2c3c dcc2 d33b
000000b0: f688 443d a8de 7a3d dff0 61bd a7bf 3ebb
000000c0: a65a 44bd 7cfc 023d 05ab 46bd 677b 27bd
000000d0: 4101 853c 22df c83c c9d7 1c3c ae16 84bc
000000e0: 7069 533c 63f0 3a3d c5c3 06bd 1f29 5e3d
000000f0: 0697 6cbd 4bdd d83c 0bc7 9bbd 996d 90bc
00000100: cdd3 183c 6813 b83c d964 ef3c 0071 8cbd
00000110: cd29 2fbd f929 b4bc a3d3 7b3c a5a9 d63b
00000120: 9910 1a3d 89a2 043d 626e e23c fe2d 1c3d
00000130: c3e1 323d eb6c b93c 5f09 95bd 5586 ce3c
00000140: 079d a53c 9f11 903c 76d6 eabb eac9 b83c
00000150: 03cd ccbc 399b 00bd cea3 5bbb 1319 1f3c
00000160: 17bb 053d 99ba beb9 0f1d 0b3d 1892 d9b7
00000170: 3634 45bc 0ef3 943c bedd 07bd 1497 bdbc
00000180: d7d5 50bc 49e2 c93c 2eff 32bd 8e34 8abd
00000190: 7349 fcbc b062 583d 7fe4 81bc 9b27 24bd
000001a0: fbff 5fbd a3f1 b3bc 08af 0cbd e18a 723c
000001b0: 73d2 5cbd 6e8e 33bc 7f2f cdbc cfe5 33bd
000001c0: 3984 be3c a45d 3dbc 8613 28bc 553b f1bc
000001d0: 2ff6 643a f3dc 30bd 48d4 273d 6190 743c
000001e0: 6948 89bc bbb5 383d 3e51 f73c 7cbd fb3c
000001f0: adc9 4cbd 2cd1 a23c 66ad 18bd e1a1 893c
00000200: 9a5b 113d 3224 b03c 89a0 2d3c 9226 b13c
00000210: 3be8 363d 06d0 3ebd b9c9 193d c91b b13a
00000220: 70b4 793d c925 da3b 6593 08bd 7292 7d3d
00000230: 6fd2 b5bb 1eb2 cbbc b210 bbbc f073 64bd
00000240: a20c 3a3d f9d2 adbb cd0f 71bc 225e 82ba
00000250: 0075 29bd c9cb 03bd 3791 20bd 7da8 56bc
00000260: 8106 de3c c35e 373d 0307 c83b 18d7 ff3c
00000270: 1ce5 fb38 2e8b 5f3c a071 a03c 4794 46bd
00000280: 6e07 043c ad59 273d a1ab 84bd ee94 14bd
00000290: ef5f 2dbd 6684 97bd e64d 96bc bcfd b33c
000002a0: 6f1c 9ebc 5ae7 58bd 30c6 503c ca3c bcbc
000002b0: a286 efba 8f54 7ebc 3486 403c 76e3 c23b
000002c0: e5e0 683c d125 a2bc 68a8 ca3c 6abb 693d
000002d0: d3ab a6bc 973e 553d e9bc c03c cd50 f0bb
000002e0: b28e 693d b5eb 223d e4e8 833c 935a 983c
000002f0: 74ec 2a3d e723 0a3c f26d 003d 9629 1e3c
00000300: 8ce5 b33c 98c9 033d 264b 2abd 222f c5bc
00000310: 8986 77bd b9fa f6bc 03e6 64bd d305 45bd
00000320: 9f26 bd3c 0f13 053c ed36 43bd 926a 0abc
00000330: c3d9 573d 0b4d 55bc 9914 6ebc 1ada 8f3c
00000340: a4f5 1b3b c522 8dbc c4a9 713d 8505 80bc
00000350: ecb9 68ba bcf8 86bd d7a9 703c d557 44bd
00000360: 2d07 12bd 182e 52bc e228 d4bc fa58 37bc
00000370: 0419 333c 7f76 0d3c d5b7 9ebb 299e 943c
00000380: 957b 753d c899 8d3b b122 91bd cd5d 653c
00000390: 8ee6 abbc c08f 6a3d ac5e fb3c 42e9 bf3b
000003a0: dbfe b3bd cd86 13bc 44ed bb3c b1bf 953c
000003b0: b547 d7bc ebff 073d 78be 9fbb 17ca dcba
000003c0: 56ca 6a3c 2936 71ba ecf2 653b f70b edbb
000003d0: ab41 233d 64e5 7b3b 7f70 e0ba c323 2dbd
000003e0: f5b9 043d 46a4 253d 5b7e 9b3b 2a66 84bb
000003f0: ac49 0c3d 0291 153d 742c 14bd a8b9 7fbd

fc1.bias f4 [128]
0.090088524 0.059584904 0.015095459 -0.015444385 -0.010131449 0.06285853 0.028696574 0.06283308
0.009214406 0.007535574 0.054081578 0.05480628 0.04077292 0.038400788 0.013576098 0.0019264017
0.014257005 0.010556656 0.06666043 0.035207376 0.047512654 0.045542877 0.079925925 0.01402194
0.07776268 0.0029319166 0.078357734 -0.00022720586 0.0062154033 0.044663742 -0.02453408 0.014316568
0.043952804 0.033327237 0.046696045 0.0116015375 0.04230931 0.024701713 -0.00037230345 0.047076255
0.05199814 -0.00787332 0.07918242 0.048351575 0.017776309 0.0013062053 0.0024377045 0.06343255
0.049493067 0.05006189 0.0756498 0.050206758 0.044631988 0.017563514 0.07626832 0.009519933
0.009416262 0.051433835 0.0025912183 -0.013081702 0.05241079 0.082064986 0.025914494 0.008714249
0.018171731 0.07363555 0.01303231 0.033000138 0.028349474 0.028797027 0.07160161 0.029929632
0.08934042 0.035011984 0.011458976 0.08689219 0.015284429 0.02926384 0.08703403 0.03295891
0.08180189 0.08863745 0.052303962 0.025519338 0.0020968432 0.05638764 0.00044665253 0.03365784
0.012733516 0.03983074 0.010939584 0.06253484 0.039544106 0.074498676 0.07784752 0.054392174
0.004436254 0.065183684 -0.0120261125 0.045265604 -0.0026472218 0.017776636 0.06849051 0.057470996
0.03273218 0.027159937 0.017682252 0.018093048 0.023981633 0.09162528 0.004452167 0.03915418
0.04970147 0.076436736 0.0028237 -0.016386727 0.02387569 0.07302821 0.06475102 0.034401514
0.04629884 0.070086256 0.008321614 0.06125493 0.080079734 0.04607321 0.07027295 0.025717406
00000000: 5580 b83d 4d0f 743d f252 773c 720a 7dbc
00000010: 61fe 25bc f9bb 803d 1415 eb3c a1ae 803d
00000020: 05f8 163c faec f63b a584 5d3d 8d7c 603d
00000030: 8101 273d 254a 1d3d 486e 5e3c 517f fc3a
00000040: 3796 693c d3f5 2c3c 4385 883d 9c35 103d
00000050: a19c 423d 2b8b 3a3d 34b0 a33d 47bc 653c
00000060: 0a42 9f3d 6625 403b 057a a03d 1c3e 6eb9
00000070: 95aa cb3b 54f1 363d b2fb c8bc 0a90 6a3c
00000080: db07 343d 2482 083d 5a44 3f3d 6014 3e3c
00000090: 874c 2d3d 3f5b ca3c b931 c3b9 08d3 403d
000000a0: 00fc 543d 19ff 00bc 652a a23d 4d0c 463d
000000b0: 9f9f 913c fa34 ab3a e5c1 1f3b ede8 813d
000000c0: 3eb9 4a3d b20d 4d3d 48ee 9a3d 9aa5 4d3d
000000d0: 08d0 363d 5ce1 8f3c 9132 9c3d 7ef9 1b3c
000000e0: aa46 1a3c 49ac 523d 6ed1 293b a354 56bc
000000f0: b2ac 563d b011 a83d a24a d43c 36c6 0e3c
00000100: e2dc 943c 3cce 963d 7885 553c 272b 073d
00000110: 283d e83c bee7 eb3c dda3 923d fd2e f53c
00000120: 1cf8 b63d ba68 0f3d 6ebe 3b3c 88f4 b13d
00000130: 8b6b 7a3c b8ba ef3c e63e b23d ecff 063d
00000140: c087 a73d 8d87 b53d ae3c 563d ee0d d13c
00000150: 316b 093b baf6 663d b02c ea39 cedc 093d
00000160: 3da0 503c 8f25 233d f13b 333c 4412 803d
00000170: 00f9 213d c392 983d 856e 9f3d 54ca 5e3d
00000180: ff5d 913b 067f 853d 2c09 45bc 6d68 393d
00000190: 037d 2dbb 4fa0 913c c144 8c3d b566 6b3d
000001a0: 2e12 063d 847e de3c 5fda 903c df37 943c
000001b0: 2175 c43c 09a6 bb3d 7ce3 913b 2260 203d
000001c0: c593 4b3d dd8a 9c3d d30d 393b 753d 86bc
000001d0: f396 c33c d08f 953d 2f9c 843d 9ae8 0c3d
000001e0: daa3 3d3d 6289 8f3d 6157 083c 73e6 7a3d
000001f0: d800 a43d 43b7 3c3d 44eb 8f3d 4fad d23c

fc2.weight f4 [64, 128]
0.089324884 0.06203787 0.034882188 -0.088264994 0.03164309 0.012707461 0.02762465 -0.013014039
0.11367986 -0.0994462 0.021411173 -0.10291466 0.05083581 -0.12326212 -0.116098024 0.0391988
0.07788309 -0.0880902 -0.03347772 0.113309175 -0.12861386 -0.09037129 0.025364086 0.036547832
0.10968585 0.10003433 -0.062306166 0.019879194 0.03277951 -0.016025234 0.11131927 0.05336866
0.07644384 0.109639704 -0.014698309 -0.018382065 0.07782913 -0.10290974 -0.07869614 -0.10481705
0.0030579085 -0.036936 -0.12122954 -0.014404247 0.07889558 0.11373182 0.06391684 -0.113813594
-0.050445314 0.028455 -0.019294068 0.07171548 -0.07426028 0.057751324 -0.046574306 -0.0078477375
0.019593446 -0.12976834 -0.013722673 0.03920932 -0.006421299 -0.10848574 -0.024422325 -0.00024688142
0.07655819 -0.12728614 0.12147598 0.019587068 0.026439436 0.016028335 0.106928006 0.034848414
-0.02703959 -0.064017236 -0.036987826 -0.028684676 0.03782724 0.03903983 0.004249368 -0.06758749
-0.08899653 -0.07373215 0.042498574 0.025812995 -0.037390966 -0.11746624 -0.09053296 -0.12217573
-0.008108205 0.08387712 0.04735094 -0.05134237 0.045649104 -0.0042853667 0.013325614 0.075334415
-0.12181821 0.025787372 -0.1074598 -0.13169995 0.090716906 -0.041158445 0.0888174 0.12358203
-0.09104594 -0.09568231 -0.019332347 -0.101978354 -0.07480722 0.015082376 -0.08934086 0.00030253592
0.10143607 -0.11432537 0.055305865 0.0056450977 -0.006827501 -0.09896248 -0.025401186 0.014414368
0.025276985 0.10381643 -0.047086645 0.02742983 0.09881481 -0.11175034 -0.024995038 0.122326605
0.008903689 0.014869224 -0.05605231 -0.019673392 -0.021502957 0.081175074 -0.00869303 -0.02834559
0.071142115 -0.0064428486 0.005244568 0.12968026 0.026510444 0.1323952 0.018631328 -0.026228607
0.023187172 0.07089245 -0.023276666 -0.03839728 0.08792076 -0.0048735626 0.024723444 0.06427064
-0.0043223496 -0.0036925992 0.12694028 0.05797431 0.08889626 -0.007412165 0.0070020333 -0.027536994
0.0041264994 0.017686317 0.0071870973 -0.09049934 -0.024581097 -0.005376927 0.007768433 -0.019264968
0.013813421 0.00078449317 0.08421915 0.11243656 0.012193898 -0.037248153 -0.015010945 0.12007016
-0.06679353 -0.00740465 0.053119574 -0.04995411 -0.00014165464 0.021025924 0.114360124 -0.07676857
0.0070495075 0.033729546 0.06812325 0.0113062635 0.08977145 0.012290451 -0.029486427 0.07546618
-0.05409207 -0.027829656 0.037769817 0.0575471 0.07452163 0.0847262 -0.046422057 0.02795357
0.082783684 0.049157687 0.12316965 0.09063383 0.04636319 0.035552435 0.066242464 0.0017352728
0.027100746 -0.014156121 0.048032194 0.07008239 0.025500981 -0.014631543 0.00090161315 0.04411464
0.030923704 0.053525876 -0.08964024 0.061847292 0.0150513295 0.10796012 -0.020678865 -0.03959231
0.07485006 0.09913227 0.0029447747 0.074395776 -0.05146552 0.098999806 -0.017058253 -0.05583382
0.059230953 0.026602728 -0.026889231 0.033321697 0.00470874 0.11882111 0.09135908 0.10845175
-0.06409624 0.08029338 0.022962779 -0.0077032596 0.047335863 0.02838436 0.132444 -0.102141224
0.09822261 -0.01841044 0.008521102 0.052945636 0.061662756 0.12236047 0.05453176 0.040268928
00000000: f7ef b63d 6c1b 7e3d a0e0 0e3d 47c4 b4bd
00000010: 2f9c 013d f432 503c 174d e23c d638 55bc
00000020: fdd0 e83d 73aa cbbd 7c66 af3c ecc4 d2bd
00000030: 3639 503d da70 fcbd cdc4 edbd ec8e 203d
00000040: 2b81 9f3d a368 b4bd ef1f 09bd a40e e83d
00000050: 5ab3 03be 9514 b9bd 58c8 cf3c 2eb3 153d
00000060: faa2 e03d ccde cc3d c034 7fbd b1d9 a23c
00000070: cf43 063d 5a47 83bc 5cfb e33d 1999 5a3d
00000080: 978e 9c3d c88a e03d 2dd1 70bc fc95 96bc
00000090: e164 9f3d 57c2 d2bd 712b a1bd 52aa d6bd
000000a0: 3167 483b 344a 17bd 3147 f8bd caff 6bbc
000000b0: 0194 a13d 3aec e83d d5e6 823d 1a17 e9bd
000000c0: bf9f 4ebd 761a e93c 980e 9ebc 91df 923d
000000d0: c615 98bd a78c 6c3d b3c4 3ebd cc93 00bc
000000e0: 6f82 a03c fee1 04be 10d5 60bc f499 203d
000000f0: c369 d2bb c62d debd 5411 c8bc dd6f 81b9
00000100: 8aca 9c3d 4c57 02be 66c8 f83d 0f75 a03c
00000110: 8497 d83c db4d 833c 12fd da3d 36bd 0e3d
00000120: 2182 ddbc 781b 83bd 8c80 17bd 20fc eabc
00000130: bcf0 1a3d 3be8 1f3d 483e 8b3b 4f6b 8abd
00000140: d043 b6bd e200 97bd fc12 2e3d c675 d33c
00000150: 4527 19bd 2492 f0bd 5869 b9bd 4537 fabd
00000160: 47d8 04bc c4c7 ab3d 0ff3 413d 614c 52bd
00000170: 8efa 3a3d 436c 8cbb ad53 5a3c ee48 9a3d
00000180: d37b f9bd 0a40 d33c e213 dcbd 5adc 06be
00000190: c9c9 b93d c295 28bd e6e5 b53d 9318 fd3d
000001a0: 4b76 babd 16f5 c3bd df5e 9ebc 07da d0bd
000001b0: 8734 99bd 121c 773c 57f8 b6bd af9d 9e39
000001c0: b7bd cf3d 6b23 eabd 6788 623d 83fa b83b
000001d0: 3bb9 dfbb d7ac cabd 2616 d0bc 3e2a 6c3c
000001e0: ae11 cf3c b59d d43d eddd 40bd 86b4 e03c
000001f0: 6b5f ca3d 5ddd e4bd 65c2 ccbc 5f86 fa3d
00000200: c7e0 113c 0c9e 733c 1b97 65bd 182a a1bc
00000210: f826 b0bc 1e3f a63d 366d 0ebc 0335 e8bc
00000220: f5b2 913d 881e d3bb a0da ab3b e7ca 043e
00000230: 6e2c d93c 9b92 073e baa0 983c 60dd d6bc
00000240: 06f3 bd3c 1030 913d b5ae bebc 7746 1dbd
00000250: cd0f b43d 68b2 9fbb d288 ca3c 53a0 833d
00000260: 7fa2 8dbb 89ff 71bb a2fc 013e 7876 6d3d
00000270: 3e0f b63d bfe1 f2bb 5071 e53b 4395 e1bc
00000280: 9637 873b e5e2 903c be81 eb3b b857 b9bd
00000290: 4c5e c9bc ef30 b0bb 578e fe3b 91d1 9dbc
000002a0: b051 623c 72a6 4d3a 177b ac3d 2445 e63d
000002b0: eac8 473c 8591 18bd 77f0 75bc 58e7 f53d
000002c0: 0ccb 88bd b5a2 f2bb e993 593d ae9c 4cbd
000002d0: 2189 14b9 8f3e ac3c a435 ea3d d738 9dbd
000002e0: 8eff e63b fe27 0a3d 3484 8b3d e83d 393c
000002f0: 18da b73d e35d 493c 858d f1bc 038e 9a3d
00000300: a58f 5dbd 05fb e3bc 86b4 1a3d 82b6 6b3d
00000310: cc9e 983d ee84 ad3d 0e25 3ebd e3fe e43c
00000320: 7e8a a93d 9259 493d 5f40 fc3d 3b9e b93d
00000330: 54e7 3d3d 6e9f 113d 21aa 873d 1872 e33a
00000340: 6202 de3c 13ef 67bc 68bd 443d 5b87 8f3d
00000350: 6fe7 d03c 24b9 6fbc 3c5a 6c3a 8eb1 343d
00000360: b553 fd3c f33d 5b3d 4d95 b7bd 9653 7d3d
00000370: da99 763c 321a dd3d b966 a9bc 8c2b 22bd
00000380: fd4a 993d dc05 cb3d 1ffd 403b d05c 983d
00000390: 82cd 52bd 69c0 ca3d c0bd 8bbc 01b2 64bd
000003a0: 289c 723d f7ed d93c ce46 dcbc 557c 083d
000003b0: c64b 9a3b 7b58 f33d 781a bb3d f31b de3d
000003c0: e444 83bd db70 a43d 701c bc3c a06b fcbb
000003d0: 40e3 413d 5186 e83c 669f 073e 6b2f d1bd
000003e0: f028 c93d 7ed1 96bc 189c 0b3c 86dd 583d
000003f0: 1692 7c3d 2098 fa3d b25c 5f3d 08f1 243d

fc2.bias f4 [64]
0.097868994 0.0029367178 -0.016176838 0.004067909 0.042339228 0.12279834 0.0550696 0.008628849
-0.031635053 0.02815338 -0.010129951 -0.0138989575 0.0056632897 0.108375564 0.052983798 -0.038007353
0.08285828 0.10034904 -0.027859407 0.11606656 -0.041735187 0.015875267 0.10166636 0.040481187
0.048385657 0.05779915 -0.030395674 0.05316056 0.10730755 0.06369199 -0.026989521 0.047885288
-0.028925693 -0.0010952129 0.017302265 0.03043068 0.019847976 0.10048621 0.010212061 0.044752087
0.11182055 -0.049978513 0.0755025 0.052767824 0.06450548 0.035690814 -0.027104493 0.0007423457
0.01793638 0.084568195 -0.00408605 0.018631496 0.03547921 0.06803816 -0.05305547 -0.009561598
0.039529417 -0.011721237 0.087545216 -0.0663335 0.079794 -0.047123723 0.038513742 -0.02008721
00000000: 8a6f c83d f375 403b 4a85 84bc 184c 853b
00000010: e66b 2d3d b27d fb3d a990 613d 0460 0d3c
00000020: c293 01bd eba1 e63c 18f8 25bc 74b8 63bc
00000030: 1e93 b93b 02f4 dd3d 8a05 593d 99ad 1bbd
00000040: 9ab1 a93d cc83 cd3d 6939 e4bc 4eb4 ed3d
00000050: 84f2 2abd d90c 823c 7436 d03d 9acf 253d
00000060: 0a30 463d cdbe 6c3d 5900 f9bc e3be 593d
00000070: 10c4 db3d f270 823d 2119 ddbc 5d23 443d
00000080: 93f5 ecbc 3f8d 8fba 7bbd 8d3c c349 f93c
00000090: 3998 a23c b7cb cd3d 7d50 273c f74d 373d
000000a0: 2c02 e53d 45b6 4cbd 0ea1 9a3d 1323 583d
000000b0: 731b 843d 8830 123d 3e0a debc fa99 423a
000000c0: 51ef 923c 1732 ad3d 46e4 85bb 14a1 983c
000000d0: a652 113d 9757 8b3d b150 59bd 40a8 1cbc
000000e0: 99e9 213d 6e0a 40bc e84a b33d dcd9 87bd
000000f0: 096b a33d ce04 41bd 96c0 1d3d ef8d a4bc

fc3.weight f4 [1, 64]
0.17490111 -0.19053367 0.11277978 0.08999466 0.14019631 -0.07336095 -0.098433584 -0.07799281
-0.12269095 -0.075279 0.13577367 0.15184157 -0.10952954 0.11373993 0.10807747 -0.15550388
0.14305508 -0.15755974 -0.09597424 0.11491607 -0.14071639 -0.15718135 0.09053982 0.11160341
-0.091295056 0.24505144 0.11358997 0.073652275 0.17502427 -0.17408767 0.17499045 -0.19942494
0.076615155 -0.07602551 -0.09072 0.16805945 -0.12522653 0.11272173 0.17317902 -0.12646465
0.15057373 -0.10508446 -0.14396489 0.19880809 0.11479881 0.14622547 0.11926946 0.14190924
-0.103146225 0.112946324 0.17547867 -0.09476561 0.1632081 -0.14244694 0.1006562 0.15786709
-0.14949553 0.13477618 0.15376642 0.10759999 -0.10719148 -0.15172635 -0.16636023 0.10089181
00000000: 4719 333e 421b 43be 16f9 e63d 1f4f b83d
00000010: 9f8f 0f3e 443e 96bd 8c97 c9bd b2ba 9fbd
00000020: 6545 fbbd e02b 9abd 4108 0b3e 5b7c 1b3e
00000030: 0651 e0bd 7bf0 e83d b857 dd3d 693c 1fbe
00000040: 087d 123e 5757 21be 248e c4bd 1e59 eb3d
00000050: f517 10be 26f4 20be f16c b93d 5490 e43d
00000060: e7f8 babd c4ee 7a3e dca1 e83d 01d7 963d
00000070: 9039 333e 0a44 32be b230 333e 0d36 4cbe
00000080: 68e8 9c3d 43b3 9bbd 68cb b9bd c717 2c3e
00000090: 623b 00be a6da e63d d755 313e f37f 01be
000000a0: 0030 1a3e 8536 d7bd 886b 13be 5994 4b3e
000000b0: a31b eb3d 21bc 153e 8c43 f43d a850 113e
000000c0: 543e d3bd 6750 e73d aeb0 333e 7914 c2bd
000000d0: 0620 273e 9cdd 11be d624 ce3d e9a7 213e
000000e0: 5b15 19be c402 0a3e f274 1d3e 625d dc3d
000000f0: 3587 dbbd 275e 1bbe 565a 2abe 5ea0 ce3d
