Model/cnn_final.pth (torch, 284077 bytes, 5 tensors)

fc1.weight f4 [128, 483]
0	0x3b76194f	0.0037551706
1	0x3c21ff5a	0.009887541
2	0x3d02c45a	0.031925537
3	0xbd42e065	-0.04757728
4	0xbcf0aa0f	-0.029377965
5	0x3a80c5b3	0.0009824544
6	0xbbccb20f	-0.006246812
7	0x3d8c5477	0.06852048
8	0xbb9b8442	-0.004745991
9	0x3c99a64a	0.01875605
10	0xbca87929	-0.020565586
11	0xbd164828	-0.036689907
12	0xbd4fb3b1	-0.050708476
13	0xbbec3557	-0.007208507
14	0x3c3ca40e	0.011513723
15	0xbc9fa3a4	-0.01948721
16	0xbd857cab	-0.06517919
17	0x3d0688a4	0.032845154
18	0xbcbfc4c6	-0.023409259
19	0xbd229ab0	-0.039698303
20	0x3a72dfd7	0.0009264922
21	0xbcf1770c	-0.029475711
22	0xbc7a7a07	-0.015287883
23	0x3d0a43ce	0.03375607
24	0x3c4c9818	0.012487434
25	0xbd56b20f	-0.052415904
26	0x3d132527	0.035924103
27	0xbb5c868d	-0.0033649534
28	0xbd1eabdc	-0.038738117
29	0x3c8ffc6c	0.017576419
30	0xbbb492cd	-0.005510664
31	0x3d01b4a7	0.031666424
32	0xbccd850e	-0.02508786
33	0xbd338740	-0.043830156
34	0x3c799da4	0.015235338
35	0xbb8189af	-0.0039531807
36	0xbc7faf53	-0.015605765
37	0xbc24d825	-0.0100612985
38	0xbcf1ff44	-0.029540665
39	0x3d8d05d7	0.068858795
40	0xbbba0451	-0.005676784
41	0xbba3dfbb	-0.005001036
42	0x3cdb3ee9	0.026763396
43	0xbb0dd4af	-0.0021641662
44	0x3d262c7e	0.040569775
45	0xbcb3d700	-0.021953106
46	0x3cf8548c	0.030313753
47	0xbbe77451	-0.0070634265
48	0xbd30990a	-0.0431147
49	0xbcd0724d	-0.025445128
50	0xbcd3189d	-0.025768572
51	0xbd3b6840	-0.045753717
52	0xbd35ced4	-0.0443867
53	0xbd0422b5	-0.03225966
54	0xbd89e8ec	-0.067338794
55	0x3cb858ee	0.022503342
56	0x3d737125	0.059434075
57	0xbb9b31f6	-0.0047361804
58	0x3c22ffa5	0.009948646
59	0xbd684696	-0.05670794
60	0xbc047c8f	-0.008086338
61	0xbd52ab8a	-0.051433124
62	0xbd2379c8	-0.03991106
63	0xbbcdd2b7	-0.0062812227
64	0xbc39fcf2	-0.011351811
65	0xbd71397a	-0.058892705
66	0x3d61dde2	0.055143245
67	0x3ba6500a	0.0050754594
68	0x3ca03856	0.019558113
69	0xbcd4e9b9	-0.025990354
70	0x3cd1ba14	0.025601424
71	0x3d724e84	0.05915691
72	0xbd489fac	-0.0489804
73	0x3d8595ad	0.06522689
74	0x3c0af4d7	0.008481226
75	0x3c6272e7	0.01382134
76	0x3d1c7067	0.038193133
77	0xbcc1a209	-0.023636835
78	0x3c663c0b	0.014052401
79	0xbcba385d	-0.022731954
80	0xbbe2782a	-0.0069112973
81	0x3c77ae22	0.0151172
82	0xbd7dde12	-0.06197936
83	0x3c227963	0.009916636
84	0xba6da568	-0.000906548
85	0xbcd679ef	-0.02618119
86	0x3d181ad5	0.037134964
87	0x3d01d8de	0.03170096
88	0xbc9a172f	-0.018809883
89	0xbda506ef	-0.08057963
90	0x3d7beedd	0.061507095
91	0x3d15e2a1	0.036593083
92	0xbd06971e	-0.03285896
93	0x3c7dfda3	0.015502366
94	0xbd9724d4	-0.07380071
95	0x39601379	0.00021369559
96	0xbd090764	-0.033454314
97	0x3cf7e6c7	0.03026141
98	0x3d54f6d4	0.051993206
99	0xbb152908	-0.0022760052
100	0x3c6f3171	0.01459919
101	0xbd64ad71	-0.05582947
102	0x3cdfe90d	0.027332807
103	0xbc1cb711	-0.009565131
104	0xbd7890a0	-0.0606848
105	0xbd3e72c1	-0.046496157
106	0x3bd50ebb	0.006502
107	0xbd84cd4e	-0.06484471
108	0xbd4a19c9	-0.049340997
109	0x3c30f3ed	0.010800344
110	0xbd8f32cb	-0.0699211
111	0x3d4dc711	0.050238673
112	0xbc479654	-0.012181837
113	0x3cde7329	0.027154522
114	0x3b04bcb0	0.0020254068
115	0xbc91752b	-0.017756065
116	0x3c739e51	0.014869289
117	0xbc803c2d	-0.015653694
118	0x3cc8be64	0.024504848
119	0xbbdd2fc6	-0.00675008
120	0xbd56c88e	-0.052437358
121	0xbd8a08df	-0.06739973
122	0x3c95b109	0.018272894
123	0x3cb7b5ab	0.022425493
124	0xbda5aa9c	-0.08089182
125	0x3caea550	0.021319062
126	0x3c9b7027	0.018974377
127	0xbc9bc64e	-0.019015457
128	0x3d11047b	0.035404664
129	0xbc915413	-0.017740285
130	0x3bbb79ce	0.0057213074
131	0xbccf3b47	-0.02529682
132	0xbd63e070	-0.055633962
133	0x3c717749	0.014737912
134	0xbc366a44	-0.011133734
135	0x3c9d7ecf	0.019225506
136	0xbbe8566b	-0.00709038
137	0xbd760b51	-0.060069386
138	0x3bec6442	0.0072141
139	0xbc607643	-0.013700071
140	0xbc75e651	-0.015008525
141	0x3d31fab7	0.04345199
142	0xbc954402	-0.018220905
143	0x3b4f2043	0.0031604923
144	0xbc477e5c	-0.0121761225
145	0x3c862590	0.016375333
146	0xbd87a559	-0.066233344
147	0x3d5a5d10	0.053311408
148	0x3ccfe03b	0.025375476
149	0x3cf96630	0.030444235
150	0xbd308bcb	-0.043102067
151	0x3c554222	0.013016256
152	0x3d09f65c	0.033682212
153	0xbca5d902	-0.020245079
154	0xbd6eb2e6	-0.05827608
155	0xbc743e5c	-0.014907446
156	0x3d0227bd	0.03177618
157	0x3cc95f59	0.024581598
158	0xbcabba2a	-0.020962793
159	0x3c9c2f5c	0.019065551
160	0xbd74be0f	-0.059751566
161	0xbc7580b1	-0.014984296
162	0x3c354f46	0.011066264
163	0xbc9b6472	-0.018968794
164	0xbc943f31	-0.018096538
165	0x3cd496c7	0.025950802
166	0x3c779a8b	0.0151125295
167	0xbbfa5306	-0.0076392917
168	0xbd024d6e	-0.031812124
169	0xbc8af902	-0.01696444
170	0xbc335919	-0.0109465355
171	0xbd0f7f56	-0.035033546
172	0x3d328f1d	0.043593515
173	0xbce5da7c	-0.028058283
174	0xbcab1690	-0.020884782
175	0xbd8625a9	-0.06550152
176	0x3d936303	0.07196619
177	0xbc998b2d	-0.018743122
178	0xbd935196	-0.07193296
179	0x3c2e9d04	0.010657553
180	0x3c723dbd	0.014785227
181	0xbcd955f7	-0.026530249
182	0x3c901acd	0.017590905
183	0xbcb2dec9	-0.021834748
184	0xbd33cc7f	-0.043896195
185	0x3b8c549c	0.004282547
186	0x3d4f351d	0.050587762
187	0x3c930a6a	0.017949302
188	0xbc4a2dd8	-0.012340032
189	0xbd43ec2c	-0.047832653
190	0xbd1e5877	-0.038658585
191	0xbc1623fe	-0.009163855
192	0x3c900d93	0.017584598
193	0xbbbd0365	-0.005768227
194	0x3d04cc82	0.032421596
195	0x3d26a45e	0.040684097
196	0x3cd9c0a9	0.026581125
197	0x3cbbff8e	0.022949006
198	0xbc117e03	-0.008880141
199	0xbbfebd49	-0.0077740294
200	0xbcdfff4a	-0.027343411
201	0xbb67b53d	-0.003535583
202	0x3c34a4c6	0.011025613
203	0xbbc72e34	-0.006078506
204	0x3c023d19	0.007949137
205	0x3cb96cef	0.022634951
206	0x3c558576	0.013032308
207	0xbbe398ec	-0.00694572
208	0xbd113c66	-0.03545799
209	0xbd1c8e73	-0.038221788
210	0xbd6e1bef	-0.05813211
211	0xbd6ed98e	-0.058312945
212	0x3cd60067	0.026123239
213	0xbd87ad06	-0.066247985
214	0xbcfd9e6e	-0.030959334
215	0xbb9c91ca	-0.0047781216
216	0xba9986bb	-0.0011713126
217	0x3c84cf95	0.016212264
218	0xbd276131	-0.040864173
219	0x3c11c8d5	0.00889798
220	0x3cf21322	0.029550139
221	0xbd11a0d7	-0.03555378
222	0xbce9c6b2	-0.028537128
223	0x3c782c8f	0.015147342
224	0xbc97f142	-0.018547658
225	0x3c7ade77	0.015311829
226	0x3c27db36	0.010245135
227	0xbb882501	-0.004154802
228	0x3cb84ba4	0.022497006
229	0xbb43651d	-0.0029814907
230	0xbc3d1534	-0.0115407
231	0x3c3a6d95	0.011378665
232	0xbd2e4f0c	-0.042555854
233	0x3c26f0f1	0.010189281
234	0xbd07994f	-0.03310519
235	0xbd042add	-0.03226744
236	0xba3e76c3	-0.00072656217
237	0xbd4189cd	-0.047250558
238	0x3d35be27	0.044370797
239	0xbcffe4e5	-0.031237075
240	0xbc9bb5e5	-0.019007633
241	0x3d87dd19	0.06633968
242	0xbc8940a2	-0.016754452
243	0x3d19c096	0.03753718
244	0xbd38057b	-0.0449271
245	0xbd419d9b	-0.047269445
246	0xbc4361e5	-0.011925195
247	0x3ca64a43	0.020299083
248	0x3cc0ac5b	0.023519685
249	0x3cb2172f	0.02173957
250	0xbd352759	-0.044226978
251	0xbd718c35	-0.058971602
252	0x3d2b7dba	0.04186795
253	0xbd36b52c	-0.044606373
254	0x3d009444	0.031391397
255	0xbcd350b0	-0.02579531

fc1.bias f4 [128]
0	0x3d8ddd8c	0.06927022
1	0xb9be4489	-0.00036290687
2	0x3d889016	0.06668107
3	0x3d1141a9	0.03546301
4	0x3d9679a2	0.07347418
5	0x3d5fc53c	0.054631457
6	0x3d90d46b	0.070717655
7	0x3c2e960a	0.010655889
8	0x3d8ff04f	0.07028257
9	0x3d084ee7	0.033278372
10	0x3cce252e	0.025164213
11	0x3cf249c5	0.029576192
12	0x3c9fa1b6	0.01948629
13	0x3d43c856	0.047798477
14	0x3d5b596b	0.053552072
15	0x3d33e062	0.04391516
16	0x3a9de2ab	0.0012045702
17	0xbc82ef27	-0.015983177
18	0x3c2f7df6	0.010711184
19	0x3c9262b2	0.017869327
20	0x3d9e3728	0.07725364
21	0x3c24fc37	0.010069898
22	0x3d11ed44	0.035626665
23	0x3cc40adc	0.02393096
24	0x3cc0fa17	0.023556752
25	0x3d63138f	0.055438574
26	0x3d99c489	0.07508189
27	0x3cde81cc	0.027161501
28	0x3d0341f6	0.032045327
29	0x3d5e42f7	0.05426308
30	0x3d9241d9	0.07141466
31	0x3d87ca90	0.066304326
32	0x3d5ca5a5	0.05386891
33	0x3d0ca34a	0.034335412
34	0x3cf614e8	0.030039266
35	0xbbebbdea	-0.0071942704
36	0x3db3d36c	0.0878056
37	0x3cba517e	0.022743937
38	0x3d0e1a2c	0.03469293
39	0xbd266fab	-0.04063384
40	0x3d2c84ec	0.04211895
41	0x3d96963a	0.07352872
42	0x3d3fc328	0.046816975
43	0x3c8749df	0.016514717
44	0x3b4400b6	0.002990765
45	0x3daaf89d	0.083482005
46	0x3ab823e6	0.0014048785
47	0x3c862bc0	0.016378284
48	0x3d9b7909	0.07591445
49	0x3d779aa2	0.060450204
50	0x3beb262d	0.0071761818
51	0x3b862b52	0.0040945197
52	0x3da340ef	0.079713695
53	0x3d6e99b8	0.058252066
54	0x3b02eb4d	0.0019976676
55	0x3be5b3d5	0.007009963
56	0x3d70a9ac	0.05875556
57	0x3c9a0acf	0.018803982
58	0xb709b100	-8.207047e-06
59	0x3c68a574	0.014199603
60	0x3c76c191	0.015060798
61	0x3c0988c9	0.0083944285
62	0x3a3274ad	0.0006807547
63	0x3d7e163b	0.06203292
64	0x3cd3c4da	0.025850702
65	0x3d8a63e5	0.067573346
66	0x3d2ab2ed	0.041674543
67	0x3cb0b95c	0.021572761
68	0x3c9b7776	0.018977862
69	0x3d7a5b4f	0.061122235
70	0x3d861fb4	0.06549016
71	0x3ceb4858	0.02872102
72	0xbcb25a72	-0.021771643
73	0xbb946708	-0.004528884
74	0x3d7e102d	0.062027145
75	0x3ca80157	0.020508451
76	0x3d82c3a6	0.06384973
77	0x3dad68d7	0.08467262
78	0x3cbaecfa	0.022818077
79	0x3d563f05	0.052306194
80	0x3d56675a	0.052344657
81	0x3d97ff87	0.07421785
82	0x3d0c8390	0.034305155
83	0x3d829d6c	0.06377682
84	0xbc333775	-0.010938515
85	0x3b8c4d48	0.0042816736
86	0x3b710b3f	0.0036780385
87	0x3d33101d	0.04371654
88	0x3ca81fad	0.020522917
89	0x3d4bc4b1	0.049748126
90	0x3d802a2b	0.06258043
91	0x3afe5e11	0.0019406696
92	0x3c4faaf6	0.012675038
93	0x3d9a84c4	0.07544854
94	0x3b8ba568	0.0042616613
95	0x3d32fe0c	0.04369931
96	0x3d8a72a0	0.06760144
97	0x3d5a8e36	0.05335828
98	0x3d8f4ee7	0.06997471
99	0x3d8f2393	0.06989207
100	0x3b180ff2	0.0023202864
101	0x3d33ec6e	0.04392665
102	0x3c9fb1e9	0.019494014
103	0x3ce2fa2a	0.027707178
104	0xba816478	-0.0009871861
105	0x3d9ee55d	0.07758591
106	0x3c840d13	0.016119516
107	0x3d0b467f	0.034002777
108	0xbc552397	-0.013008974
109	0x3cebbb11	0.028775724
110	0x3db2101f	0.08694481
111	0x3cf47056	0.029838722
112	0xbacae75a	-0.0015480325
113	0x3c4d755a	0.012540186
114	0x3d844d99	0.06460113
115	0x3d388c32	0.045055576
116	0x3d9557cb	0.07292136
117	0x3d258269	0.040407572
118	0xbb7ba019	-0.0038394986
119	0x3c979581	0.018503906
120	0x3d5dc60b	0.054143947
121	0x3cdfd2ab	0.027322134
122	0xbc85aade	-0.016316827
123	0x3c8bd41b	0.017068913
124	0x3cb84c31	0.022497268
125	0x3bcd18c7	0.006259057
126	0x3d84de21	0.0648768
127	0x3d859ae3	0.06523683

fc2.weight f4 [64, 128]
0	0x3b602f4b	0.0034207876
1	0x3cf80dd0	0.030280024
2	0xbd83cd1c	-0.06435606
3	0xbd1fa4a1	-0.03897536
4	0xbcae0f0b	-0.021247407
5	0x3d41515a	0.047196724
6	0x3c992550	0.01869455
7	0xbd48bffb	-0.04901121
8	0xbd114038	-0.035461634
9	0x3d2962d6	0.041354023
10	0xbc41da2e	-0.011831803
11	0xb7896dfe	-1.6382892e-05
12	0xb94a592f	-0.00019297445
13	0x3daaa388	0.08331972
14	0x3df801d8	0.12109727
15	0x3dad0d4b	0.08449801
16	0x3d33e24e	0.043916993
17	0x3dfcd502	0.123453155
18	0x3d293876	0.04131361
19	0x3d0c9a9b	0.03432713
20	0xbd9a9718	-0.0754835
21	0x3bba5343	0.005686195
22	0x3ce8828e	0.028382566
23	0x3caf584e	0.021404412
24	0x3cb14dfd	0.021643633
25	0x3c891401	0.016733171
26	0xbde80958	-0.11329907
27	0x3d37da79	0.044886086
28	0xbd94fc15	-0.07274643
29	0x3d56d3b8	0.052448004
30	0x3dfcf278	0.12350935
31	0xbd7e06da	-0.062018253
32	0xbc49da41	-0.012320102
33	0x3d04d4ff	0.03242969
34	0xba224965	-0.0006190746
35	0xbcecf162	-0.028923694
36	0xbd807b53	-0.06273522
37	0x3d18c102	0.03729344
38	0x3d39fe78	0.045408696
39	0xbd669ce7	-0.056301977
40	0xbc88e93d	-0.01671278
41	0x3dd4d6c4	0.10392526
42	0x3dfbaf69	0.12289316
43	0xbdc9a014	-0.098449856
44	0xbca4c8d9	-0.020115303
45	0x3de846ff	0.113416664
46	0xbd46f9af	-0.04857796
47	0x3daddbfe	0.08489226
48	0x3d92ff8b	0.07177647
49	0x3cfcd27d	0.030862087
50	0xbd812033	-0.0630497
51	0xbc02eb88	-0.007990725
52	0x3df3813d	0.118898846
53	0x3c5c8c3a	0.013461167
54	0xbd4a8430	-0.04944247
55	0xbb8ab981	-0.0042335396
56	0xba4c04b2	-0.0007782682
57	0x39894a4c	0.00026186032
58	0xbd0f0d66	-0.034924887
59	0xbc96122f	-0.018319217
60	0xbdbf985f	-0.09355234
61	0xbd48e77e	-0.049048893
62	0x3c3fdfcd	0.011711073
63	0x3d5b7daa	0.05358664
64	0xbc335c08	-0.010947235
65	0xbdb339a6	-0.0875123
66	0x3c6b2b46	0.014353579
67	0xba2b30fb	-0.0006530431
68	0x3d8d26ee	0.06892191
69	0xbd8eb5dd	-0.069682814
70	0xbdb39e1d	-0.08770392
71	0xbe018d80	-0.12651634
72	0xbd209694	-0.039206102
73	0xbd5d4b34	-0.054026797
74	0x3c08521c	0.008320358
75	0xbd902906	-0.070390746
76	0xbe0d091d	-0.13773008
77	0xbd0b6f52	-0.03404171
78	0xbcaa7ec8	-0.020812407
79	0xbc73a84c	-0.014871668
80	0x3d37c426	0.044864796
81	0xbd596e2e	-0.05308359
82	0x3d2d7d2b	0.042355698
83	0xbda8c4e9	-0.08240683
84	0xbd047678	-0.032339543
85	0x3c863b61	0.016385736
86	0xbcfd3c8e	-0.030912664
87	0xbd8aacd7	-0.06771248
88	0xbde2cf32	-0.110746756
89	0xbccd8057	-0.025085611
90	0xbde54738	-0.111952245
91	0x3cab51b5	0.020912984
92	0x3b7dbccd	0.003871727
93	0xbd9f093a	-0.07765432
94	0x3af67470	0.0018803012
95	0xbd0f3672	-0.034964032
96	0xbdfd5ee8	-0.123716176
97	0x3d8a8322	0.06763293
98	0xbcfa3b0d	-0.030545736
99	0xbdf8a0b2	-0.12140025
100	0xbc981737	-0.018565757
101	0x3cdb85d7	0.026797218
102	0x3d229e8e	0.03970199
103	0xbccbc107	-0.024872316
104	0x3def1eff	0.11675834
105	0xbced48fa	-0.028965462
106	0x3d8f5006	0.06997685
107	0xbcd60974	-0.026127554
108	0x3de7be62	0.113156095
109	0x3dfd18ec	0.12358269
110	0xbde8eb93	-0.11373057
111	0xbd9af2ac	-0.07565817
112	0xbdab6047	-0.08367973
113	0x3da594f2	0.0808505
114	0xbda4ed2a	-0.08053048
115	0xbd81bd3e	-0.06334923
116	0x3e13d8ee	0.14438221
117	0xbdd14c6c	-0.102196544
118	0x3d386a8d	0.04502349
119	0x3cdd2079	0.026993023
120	0xbd21bf84	-0.039489284
121	0xbc3f3bc9	-0.011671969
122	0x3aa949b1	0.0012915639
123	0x3dea4665	0.11439208
124	0x3debff04	0.1152325
125	0xbd9a3755	-0.07530085
126	0x3d2bc4ce	0.041935734
127	0x3d51d8ef	0.051232275
128	0xbd81632b	-0.06317743
129	0x3cde8704	0.02716399
130	0x3e0118ba	0.12607089
131	0x3de4a991	0.11165155
132	0x3a97f6e2	0.0011593963
133	0xbc9e132f	-0.019296257
134	0x3c2e3e7f	0.010635017
135	0xbb866469	-0.0041013253
136	0xbd44fb03	-0.048090946
137	0x3d06ed09	0.032940898
138	0x3da48a19	0.080341525
139	0x3cc818da	0.024425913
140	0xbd91b5df	-0.07114767
141	0x3d3bdd10	0.04586512
142	0x3c87e7b9	0.016589986
143	0x3d1ac5d5	0.037786324
144	0x3d848bc6	0.06471972
145	0x3c321e8f	0.010871544
146	0xbcc54ff6	-0.02408598
147	0x3d837369	0.06418497
148	0x3ce3db86	0.027814638
149	0x3cab3645	0.020899901
150	0xbd8bc1ad	-0.0682405
151	0xbc359cf7	-0.011084787
152	0x3df9c7a8	0.121962845
153	0xbce30a1a	-0.027714778
154	0x3b9cc018	0.0047836415
155	0x3d18517b	0.03718708
156	0xbce1f5f5	-0.027583102
157	0xbd474070	-0.048645437
158	0x3c9c92f5	0.019113043
159	0x3dda0410	0.10645306
160	0x3d8685f1	0.06568516
161	0x3d344d6b	0.044019144
162	0x3d56ec47	0.052471425
163	0xbc15e78c	-0.009149443
164	0x3d70a0ce	0.058747105
165	0x3dfc98c3	0.123338245
166	0x3dcb5f92	0.09930338
167	0x3d5ab080	0.05339098
168	0x3db59048	0.0886541
169	0xbb42a2a5	-0.0029698994
170	0xbd73b40e	-0.059497885
171	0x3e057452	0.13032654
172	0x3db9efe7	0.09078961
173	0x3da8f020	0.08248925
174	0x3d40ac0f	0.047039088
175	0x3cdfcd30	0.02731952
176	0x3ca4a9d4	0.020100512
177	0x3d8ce30f	0.068792455
178	0xbcaa1c8d	-0.020765567
179	0x3d732010	0.05935675
180	0xbc147f20	-0.009063512
181	0xbc67736d	-0.014126641
182	0x3bd408e6	0.0064707873
183	0xbc25901b	-0.010105158
184	0x3e24678b	0.16055124
185	0xbd8f74da	-0.070047095
186	0x3d7dc0d5	0.061951477
187	0x3d91db59	0.07121915
188	0x3d361a39	0.0444586
189	0x3e049782	0.1294842
190	0x3d4b02e0	0.04956329
191	0x3e0f9492	0.14021519
192	0xbc0c4e46	-0.008563584
193	0x3db9d058	0.090729415
194	0xbdd64805	-0.104629554
195	0xbd80240a	-0.06256874
196	0xba49d2ca	-0.00076989515
197	0x3dd6c64f	0.10487043
198	0xbc821bab	-0.015882334
199	0x3e120598	0.14259946
200	0x3e0ad1cc	0.13556594
201	0x3e0d32e9	0.13788952
202	0x3ddcdeec	0.107847065
203	0x3e1a212d	0.15051718
204	0x3de2cd95	0.11074368
205	0x3d2ef35d	0.042712558
206	0x3e161498	0.14656293
207	0x3c43bbb9	0.011946612
208	0xbcd03142	-0.025414113
209	0x3dc15ed9	0.09441919
210	0x3df9b97f	0.12193584
211	0x3d655c7b	0.0559964
212	0x3d2feeab	0.04295222
213	0x3df35221	0.11880899
214	0xba931f20	-0.0011224486
215	0x3defbffa	0.117065385
216	0x3c3c0686	0.011476165
217	0x3d9a9638	0.07548183
218	0xbc14c0ff	-0.009079217
219	0x3cf63358	0.03005378
220	0x3ca6c418	0.020357177
221	0xbc4e9805	-0.0126094865
222	0xbda7caa4	-0.081929475
223	0x3cd25f30	0.025680155
224	0x3d849c5c	0.06475136
225	0x3cc12c63	0.023580736
226	0x3da0c15b	0.0784938
227	0x3e14c895	0.14529641
228	0x3d629ed9	0.05532727
229	0x3ddb10ad	0.1069654
230	0x3dc294c6	0.095010325
231	0x3aab601b	0.0013074906
232	0xbd05ac0a	-0.032634772
233	0x3e1c0b75	0.15238746
234	0xbc7830fc	-0.015148398
235	0x3e1b617d	0.15173908
236	0xbd64fff7	-0.05590817
237	0x3c39fcef	0.011351808
238	0x3d8c2561	0.06843067
239	0xbbabfcb9	-0.0052486327
240	0x3db8f559	0.09031171
241	0xbd66ec2c	-0.056377575
242	0x3db3bcad	0.087762214
243	0xbb5f78c2	-0.0034099077
244	0xbd0a71d7	-0.033799972
245	0xba6d4352	-0.0009050864
246	0x3df97123	0.12179782
247	0x3baec027	0.005332965
248	0x3df5a199	0.11993713
249	0x3d65cbcf	0.05610257
250	0x3d5c1b07	0.053736713
251	0xbdca0c39	-0.098656125
252	0xbce74e2c	-0.028235517
253	0xbb9fd38d	-0.0048775137
254	0x3d9d34d8	0.07676095
255	0xbd28c92c	-0.041207477

fc2.bias f4 [64]
0	0xbd6530d5	-0.055954773
1	0xbd035341	-0.03206182
2	0xbc99211e	-0.01869255
3	0x3d953294	0.07285038
4	0x3dda8f67	0.10671883
5	0xbd72992e	-0.059228115
6	0x3d2c1376	0.042010747
7	0x3dc3c4ce	0.09559022
8	0x3c547337	0.0129669225
9	0x3d728c37	0.05921575
10	0x3c899d83	0.01679874
11	0x3dbe79ae	0.09300552
12	0x3dd1c8b6	0.10243361
13	0x3d40163e	0.04689621
14	0x3c73aa7c	0.01487219
15	0x3e15f51d	0.14644285
16	0x3c45f27d	0.0120817395
17	0x3d3556a5	0.044272084
18	0xbaaa4d54	-0.0012993016
19	0x3dc3e101	0.095644005
20	0x3b9c0a02	0.004761935
21	0x3c83fca1	0.016111674
22	0x3de6e1bf	0.112735264
23	0x3de4fa6b	0.11180576
24	0x3dd26033	0.10272255
25	0x3dcf6e26	0.10128431
26	0x3db4f336	0.08835451
27	0x3d7e26b5	0.062048633
28	0x3c1f6411	0.0097284475
29	0x3cd35220	0.025795996
30	0x3d9bf3ee	0.07614885
31	0x3c9ff3b7	0.019525392
32	0x3dc74aa8	0.097310364
33	0xbd0e47a4	-0.03473629
34	0xbd5cfb14	-0.053950384
35	0xbcdded21	-0.027090611
36	0x3ddb6a4d	0.10713635
37	0xbb1e01d6	-0.002410998
38	0x3da758cf	0.08171236
39	0x3d6c4f17	0.057692613
40	0xbcb4839b	-0.02203541
41	0x3db55cac	0.088555664
42	0x3d5b382b	0.053520363
43	0x3d6c4d30	0.0576908
44	0x3cd98c83	0.026556259
45	0xbbf29d0c	-0.0074039754
46	0x3c37c25d	0.011215773
47	0x3b582477	0.003298072
48	0x3db4be8f	0.08825409
49	0x3d1560a5	0.03646912
50	0xbd2a5b4a	-0.041590966
51	0x3de66b04	0.1125088
52	0xbd2abbeb	-0.04168312
53	0x3db7075c	0.089369506
54	0xbd38a87f	-0.045082565
55	0x3dc58aad	0.09645591
56	0x3d70966f	0.058737215
57	0xbd02a38a	-0.031894244
58	0x3c15da17	0.009146235
59	0x3cf06659	0.029345678
60	0x3d3c6b5c	0.046000823
61	0x3d6b43c2	0.057437666
62	0x3caddb17	0.021222634
63	0x3cc93c3a	0.024564851

fc3.weight f4 [1, 64]
0	0x3e0c5086	0.13702592
1	0xbdc60d7f	-0.09670543
2	0xbd9e8124	-0.07739475
3	0x3e408a7d	0.18802829
4	0xbe039543	-0.12849908
5	0x3e15e653	0.14638643
6	0x3de8078e	0.11329566
7	0xbdd4efc6	-0.10397296
8	0x3e145da1	0.14488842
9	0xbe2790c7	-0.16363822
10	0x3e4425ec	0.19155091
11	0x3e0bca49	0.13651384
12	0x3e4d843b	0.20069973
13	0x3e087ff7	0.13330065
14	0x3e12808e	0.14306852
15	0x3dfc94b5	0.12333051
16	0xbdf56e62	-0.119839445
17	0x3dbcb21b	0.092136584
18	0xbd9b810a	-0.075929716
19	0xbe3db157	-0.18524681
20	0xbe241cf3	-0.16026668
21	0x3e0f8638	0.14016044
22	0x3e184d91	0.14873339
23	0xbda91ffd	-0.082580544
24	0xbddf4c2d	-0.10903201
25	0xbd9d5c22	-0.076835886
26	0xbe0a682e	-0.13516304
27	0xbe1854a7	-0.14876042
28	0x3e0d69f4	0.13809949
29	0x3e3c1a88	0.18369496
30	0x3e4af442	0.1981974
31	0xbe0b23fe	-0.13587949
32	0xbddabf00	-0.106809616
33	0xbe397504	-0.18111044
34	0x3da14965	0.07875327
35	0x3df19761	0.11796451
36	0xbe3924c7	-0.18080436
37	0x3dfc52ff	0.12320518
38	0x3e31d9d1	0.17368247
39	0x3dc11560	0.09427905
40	0xbdcc02d6	-0.099614784
41	0x3de33133	0.110933684
42	0xbdf01c70	-0.11724174
43	0xbdf59519	-0.11991329
44	0xbdd7b4be	-0.10532521
45	0xbddaa021	-0.106750734
46	0xbdf0de63	-0.11761167
47	0xbdbc40e3	-0.09192064
48	0x3db08178	0.08618444
49	0x3df03011	0.11727918
50	0xbd9af687	-0.075665526
51	0x3e084240	0.13306522
52	0xbe2b779f	-0.1674485
53	0x3df00f05	0.11721615
54	0xbdc1c5a7	-0.09461527
55	0x3e01615d	0.12634797
56	0xbdb21b79	-0.08696646
57	0xbe31197b	-0.17294876
58	0x3e01d505	0.12678917
59	0xbddfd072	-0.1092843
60	0x3e1bfc85	0.15233047
61	0xbde2e333	-0.11078491
62	0x3e35f092	0.17767552
63	0x3e05c452	0.13063172
